webApp/static/data.pth (torch, 6815 bytes, 6 tensors)

l1.weight f4 [8, 82]
00000000: 5290 09be 1e1e b63e 1419 c03e bd68 c93e
00000010: 7d10 abbe b760 ac3e f73f a53e cb95 b73d
00000020: 8165 1abe 9fea f73e 8d2c e83e ecc1 1d3f
00000030: 4155 353f 0186 1a3f ffc3 0a3e 8629 b23e
00000040: afde b53e f24d 02be 9dc5 2cbc 5bba e63d
00000050: feca 833d 02d2 1c3f ba61 b1be 1f7a 4a3f
00000060: 9727 8fbd 83b8 09be 0599 b73e f0b4 eb3d
00000070: 77dd 59be 3f4f adbe e01f 6abd 4a11 30be
00000080: 83e5 e0be 97b4 6e3e c598 4a3e 1a69 1bbe
00000090: 8f80 da3d 673e b93d 156d 7c3c b67d 103f
000000a0: 6dea b93e df38 f53e 7c0e 50be 4abc ff3d
000000b0: 23e7 29be af0f b0bd c755 6ebf 3ec4 b83e
000000c0: 56ef 183f e6f5 163e 8dee 083f 0bae 603f
000000d0: cbc2 023f a796 8b3e a89d c63e 5796 1d3f
000000e0: 6611 3b3f bc56 033f 7ded 1a3f 663d 7abe
000000f0: a8ad 74be dce2 163f 4e6a 2dbe d8f0 ee3e
00000100: e05a 863e 2a58 d03e 57ed c23e 33c0 313f
00000110: 6423 40bf 3cfa 1bbe 18e2 a53e 9325 3c3e
00000120: af67 533e b52a eebe db3b a9be fca2 6c3f
00000130: 6279 7ebe 208a fc3e c742 a83e c146 773e
00000140: 8d37 e63e 7c67 7f3f 50a9 67be 1e00 0c3f
00000150: c84d 253f fbbe 2bbe 9c6d 4cbb e3f7 353f
00000160: 2557 e13e a123 1cbe fd16 b0be 1147 a03e
00000170: a2ba 093f ea7c 373f 5883 3cbe 1ec4 3bbe
00000180: fb42 08be e2c4 d73e abe8 943f 6933 c7be
00000190: 1446 a1bc 449e 2f3f 3c4b 893f 408c 9e3e
000001a0: 7042 583f 08c0 d2be 5cc5 803e bc05 cebe
000001b0: 749d 183e 30d9 30be 966a 80be 22aa 363f
000001c0: 8554 7abd 54dc abbe 4bc7 b5be 6040 de3d
000001d0: 639c b5be 4cfc 23bd 0875 18be 2cd6 7dbe
000001e0: 2c39 c2be bb1b 103f 4839 d1bc 1ec3 30bd
000001f0: 9fb6 77be f377 2e3e bae5 613f 7b39 f5bd
00000200: 7dc2 663f 5f34 1e3f cee1 a8be 87ad bb3e
00000210: c2c7 d9bb 57df a2be b877 3f3f d266 c83e
00000220: 7bea dc3e d0eb bebc ad08 5c3f 30be 20be
00000230: 04e1 903c eec5 a5be 6202 04bf 08f4 373f
00000240: 5e95 91be 5ab2 51be b412 9dbe 6609 3abe
00000250: 442e 3f3f 7c66 96be 58c6 12bf 6079 b5bd
00000260: 340d 86bc ffd2 793e 4afa a2be 5dc8 e6be
00000270: abb1 debe e0d0 c9be 3451 503f 814a 38be
00000280: a693 073f 132b 0b3e 86ce 5f3e 0b6b cdbe
00000290: cf4f 4d3f 6f55 913d 8b4e a3be 2724 cabe
000002a0: 5495 6a3e 7327 a23c 2985 4cbd 886e 45be
000002b0: ad14 af3e 616c d2bd 7c48 a9be 0281 43be
000002c0: fe06 893e c8e0 4f3e d2f5 23bf 8187 bfbe
000002d0: 6777 bfbe bc46 093f 6cc6 a63e 455a f53d
000002e0: 86a8 153e e1a3 e3bd 651f 803e a535 283f
000002f0: 1d4c c7bd ae3d ec3e 6faf 82be e1ae 86be
00000300: 5adc d63e 38b0 a73e 988b 283e d295 9b3e
00000310: bd5d 693f c9d7 473e 86b0 f83e 2ee0 443f
00000320: 1bed c63e 186d 9a3e e203 273f 5950 a43e
00000330: 0e0b 103f 1c9e aabe f1e7 f93e 05b8 e93d
00000340: 40c4 4f3e f292 113f fea7 273f 5e7f 88be
00000350: 4fe3 cebe b34a c83e 0c17 e1be 8ba8 5fbf
00000360: bc04 afbd cb20 a7be b9b7 8cbe 1f82 8abe
00000370: 0200 7ebf 252b 14be 7d9c c2be 486d 1d3f
00000380: a207 263f 470e 0bbf 67b6 9f3e 8d5c 8a3c
00000390: 887d 8f3d 2dbc 043c c7ba 143e b1ab febe
000003a0: 92e3 a13f 325c 233f 5c33 03be 5f3d 403c
000003b0: 03f3 45bf 664b 4c3f a32f f23e f52a a8be
000003c0: a117 b13e 0123 c9be b163 9dbe a2bb 0d3e
000003d0: 5451 a73e 0ff5 de3e 6853 53be f3f8 003f
000003e0: ce29 163f 1f95 413d 794b b63e 5798 2f3f
000003f0: 5107 bd3e 0fbd 393d 8cc2 123e 5a17 aa3e
-0.1343396 0.35569853 0.37519133 0.3933772 -0.33411017 0.33667538 0.32275364 0.089641176
-0.15077783 0.4842119 0.4534649 0.61624026 0.7083321 0.60360724 0.13551329 0.34797305
0.35521457 -0.12725046 -0.010545162 0.11266013 0.06435202 0.61257946 -0.34644872 0.7909259
-0.06989973 -0.13449292 0.35858932 0.115091205 -0.21275888 -0.33849522 -0.057159305 -0.17194095
-0.43925104 0.23311077 0.1978484 -0.15176812 0.10669052 0.090451054 0.015406867 0.5644182
0.36311665 0.47894952 -0.20318025 0.12487085 -0.16592078 -0.085967414 -0.93099636 0.3608722
0.597402 0.1474224 0.53489 0.8776557 0.5107848 0.27263376 0.38792157 0.61557525
0.7307342 0.5130422 0.6051863 -0.24437484 -0.2389437 0.5893991 -0.16935083 0.46668124
0.26241207 0.40692264 0.380717 0.694339 -0.75054 -0.15232176 0.32399058 0.18373708
0.20645021 -0.46516958 -0.3305348 0.92436194 -0.24850991 0.4932413 0.32863447 0.24148084
0.44964257 0.9976728 -0.22623181 0.5468768 0.6457181 -0.16772072 -0.0031193262 0.7108137
0.44011799 -0.15247966 -0.3439254 0.3130422 0.53800404 0.7167498 -0.18409479 -0.18336532
-0.13306801 0.42142397 1.1633505 -0.3890641 -0.019686736 0.6860087 1.0726085 0.30966377
0.84476376 -0.41162133 0.25150573 -0.4023875 0.14903814 -0.1727035 -0.2508132 0.7135335
-0.06111576 -0.33566535 -0.3550361 0.10852122 -0.35470876 -0.04003553 -0.14888394 -0.24788731
-0.37934244 0.56292313 -0.02554001 -0.04315483 -0.24190758 0.17037944 0.8824116 -0.11973854
0.90140516 0.6179866 -0.32984775 0.36655828 -0.0066461274 -0.3181102 0.7479205 0.39140946
0.43147644 -0.023305804 0.8595074 -0.15697551 0.01768542 -0.3237757 -0.51566136 0.7185674
-0.2843427 -0.20478192 -0.30678332 -0.18167648 0.7467997 -0.29375064 -0.573339 -0.08861041
-0.016363718 0.24396895 -0.3183158 -0.4507474 -0.43494925 -0.3941717 0.81373906 -0.17997171
0.5295967 0.1359065 0.21856126 -0.4012073 0.80199903 0.07096373 -0.3189586 -0.39480707
0.22908527 0.019794201 -0.04993168 -0.19280446 0.34195462 -0.10274578 -0.33063114 -0.19092181
0.26763147 0.20300591 -0.6404697 -0.3740807 -0.37395784 0.5362356 0.3257326 0.11980108
0.14615068 -0.11115242 0.25023952 0.65706855 -0.09731314 0.46140808 -0.2552447 -0.26305297
0.4196499 0.32751632 0.16459501 0.3038774 0.9115866 0.19515909 0.48572177 0.7690457
0.38852772 0.30161357 0.652403 0.3209255 0.5626687 -0.33323753 0.4880977 0.11412052
0.20289707 0.56864846 0.6549071 -0.26659673 -0.40407798 0.3911949 -0.43962896 -0.8736655
-0.08545825 -0.32642207 -0.2748392 -0.270524 -0.9921876 -0.14469583 -0.38010016 0.61494875
0.64855397 -0.5431866 0.3119385 0.016889835 0.07006365 0.008101505 0.14524375 -0.49740365
1.2647574 0.63812554 -0.12812561 0.011733382 -0.7732393 0.7980255 0.4730197 -0.32845274
0.3458834 -0.39284518 -0.3074012 0.13841107 0.32679236 0.4354634 -0.20637286 0.50379866
0.5865754 0.047261354 0.35604456 0.6859183 0.36919644 0.045346316 0.14332026 0.3322094

l1.bias f4 [8]
00000000: 05ce e03e 11a4 b53e 83f0 943f 7fac f23e
00000010: 0669 643f 333a 5d3f 7ec6 503f 31df 283f
0.4390718 0.35476735 1.1635898 0.4739723 0.89222753 0.8641693 0.81552875 0.65965563

l2.weight f4 [8, 8]
00000000: 68f0 053f f5d4 c8be e7ef b03f ddd7 4bbf
00000010: 458c 2ebf e88e c63f e146 c63f c7c9 febc
00000020: 62c9 bd3f 7f91 0e3e 71c8 3fbf 42fd 943f
00000030: 8d41 e23f de32 c73f 089d 0fbc 4aef 79be
00000040: 3eb7 813f 554d a03f 0492 28bf 13e6 e83e
00000050: 0a8a 003f ca88 903f d6be ac3e 0125 4fbd
00000060: ce7a b33e bbf8 f43e ba56 7bbf bd29 b33d
00000070: e726 e2be b843 a3bf f471 8d3f a7a3 e33d
00000080: 45f6 6bbf 701c 3cbe 7d15 fa3f f6a2 92be
00000090: c09e 743f 8613 55be ed9b 2d3f 4069 a63f
000000a0: de7f ab3f 5573 003d 8c07 583e fdd4 8d3f
000000b0: e370 943f 7d98 a6bf 4bc1 e0be 0671 4f3f
000000c0: 126e c43e 8f1c d03f 5b94 2ebe c6b0 3f3f
000000d0: d318 80bf 8e84 5bbe 9a01 8e3e 9ab8 863f
000000e0: 6ede fa3e 96cc 02be f52d f43e 8044 63bf
000000f0: 5862 84be d70b bcbe be18 5b3f 7f3a 803f
0.52319956 -0.39224973 1.3823212 -0.79626256 -0.68182784 1.5512362 1.549038 -0.031102074
1.4827082 0.1392269 -0.74915224 1.1639788 1.7676255 1.5562398 -0.0087654665 -0.24407688
1.0134046 1.25236 -0.658478 0.45488033 0.5021063 1.1291745 0.33739346 -0.0505724
0.3505463 0.47846016 -0.9817921 0.08748195 -0.44170305 -1.2755041 1.1050401 0.111151986
-0.9217265 -0.18370223 1.9537808 -0.28639954 0.95554733 -0.20808229 0.6781605 1.300087
1.3398397 0.03135999 0.21096629 1.1080624 1.159695 -1.3015286 -0.4389747 0.81031835
0.38365227 1.6258715 -0.1704878 0.7487911 -1.0007576 -0.21437284 0.27735597 1.0525086
0.48997825 -0.12773356 0.47691312 -0.887764 -0.2585628 -0.36727783 0.8558463 1.0017852

l2.bias f4 [8]
00000000: b698 3a3f 7c68 113f 177f 6abe 99fc 50be
00000010: df78 663f c216 053f 2e0c 79be c731 26bf
0.7288927 0.56800056 -0.22900043 -0.20408858 0.90028185 0.5198785 -0.24321052 -0.64919704

l3.weight f4 [12, 8]
00000000: d9ca 02c0 e74d 863e 8ca0 7f3e 60be 90bf
00000010: 1c22 a8be 265c ba3e 831b da3e c9bf 6abf
00000020: 5bf7 e43d 3edd 8e3d eb77 8c3d 8c44 ddbf
00000030: 4546 08be f48e 61be 6b54 3ebf f4f4 003f
00000040: ab76 b63e 7f4e 1ebf b77d 7e3e dbdd 26be
00000050: 7b16 25be 5efe a2bf 34bc 0b3f 16d1 e6bd
00000060: 9daa b03e 0ecf 393f 0b5c 383f 9b6a 53bf
00000070: ac54 b8bf c09f c1bf abae c5bf 0f12 73bf
00000080: 4b9a 523f 4b42 b83e 89e8 98bd 67fc 3ebf
00000090: 7cef 283e e3df c4bf e173 9fbf 40cf 06c0
000000a0: 94ea 4fbf 083f a63e 933d 83be 2b37 0ebf
000000b0: 4bfc 353f 7d86 023f eed5 94bf 4c63 c6bf
000000c0: 1986 aebf 11cd bdbe 0ddc aa3d c165 0cbf
000000d0: 1e3b 033f de1c 27be f65b a43e 741a b33e
000000e0: 79d2 a83d a3be 853e 307e 213f 0d3b 7bbf
000000f0: 857c 9fbf a039 83be ecaa 853e 5876 0dbf
00000100: 03a0 6cbf 1eac e5bd 58b8 bc3e 19a5 873f
00000110: a8ea 9ebf a5f0 aa3e a785 973e 5c7d 9bbe
00000120: 49a2 92bf 7d27 153f 5eab 903e 8fc8 2bbf
00000130: f6c6 b6bf bece 4d3f d103 61bf 2aa2 60bf
00000140: 6981 663f c955 95bf b23a 82bf af6d 06bf
00000150: 1d94 0f3f 2087 a3bf eb73 93bf 8e6d aabd
00000160: fcd3 93bd 5637 a9bf 17ae 9bbf 79ab 05c0
00000170: 2c0f c23e eeb9 933e b3e1 e8bd 0463 e43e
-2.0436308 0.2623131 0.24963588 -1.1308098 -0.32838523 0.3639843 0.42599115 -0.9169889
0.11179992 0.06975792 0.0685881 -1.7286544 -0.13308056 -0.22027189 -0.7434756 0.5037377
0.3563741 -0.61838526 0.24852644 -0.16295569 -0.16121857 -1.2733877 0.5458405 -0.11270349
0.34505168 0.72581565 0.72015446 -0.8258454 -1.440084 -1.5126877 -1.544393 -0.9494943
0.8226668 0.35988078 -0.074662276 -0.74603885 0.16497606 -1.5380825 -1.2457238 -2.1063995
-0.8121731 0.32469964 -0.25632915 -0.5555293 0.71088094 0.5098646 -1.1627786 -1.5499053
-1.3634673 -0.37070516 0.083427526 -0.54842764 0.5126208 -0.16319606 0.3210141 0.3498112
0.082432695 0.26122007 0.6308317 -0.9813698 -1.2459875 -0.25629902 0.26106966 -0.55258703
-0.9243166 -0.112144694 0.36859393 1.0597259 -1.2415361 0.33386722 0.29594156 -0.3036908
-1.1455775 0.5826338 0.28255743 -0.67102903 -1.4279468 0.8039359 -0.8789645 -0.8774744
0.90041214 -1.1666805 -1.0174162 -0.52511114 0.5608538 -1.2775612 -1.151975 -0.08321677
-0.07218167 -1.3220012 -1.2162503 -2.0885909 0.379022 0.2885279 -0.11371174 0.44606793

l3.bias f4 [12]
00000000: 6792 42be 6521 fabe 5042 b3be 3720 423d
00000010: 9b71 0a3f 1aa4 073f 29c2 84be ffa5 afbe
00000020: ab5d cabe 5582 1d3e 6bbe ed3e 2629 b7bc
-0.1900116 -0.48853603 -0.3501153 0.047394004 0.540796 0.52984774 -0.25929382 -0.34306332
-0.39524588 0.15381749 0.4643434 -0.022358488
