webApp/static/data.pth (torch, 6423 bytes, 6 tensors)

l1.weight f4 [8, 82]
00000000: 69ca 1abe 4b0d 053e b86d 4ebe e041 3e3f
00000010: 4a6c a6be 26d8 343e 3eb2 2a3e eebb 133f
00000020: 0659 823f f327 db3e dbd6 6dbd c986 4abe
00000030: d499 983c 3c7b 313d 4ea6 453f 6737 a2bc
00000040: ec9c 523f 9680 8abe d20d 89be d9f5 a93d
00000050: 3f69 9e3c 3299 b83e acd8 cdbd 727b 62be
00000060: 5a7e 0a3f 9b79 63be d6f4 f73e a042 e23e
00000070: 1457 a2be f8dd 8dbe 797f 4ebe b733 553f
00000080: e46a e9be 5883 78bd ff4c f0be 2dfd 33be
00000090: 8c47 f0be bb4a f0be ffe5 67bf 2db5 99bd
000000a0: f731 a5be c986 b13e fd8b 433f 1739 133e
000000b0: 485b 0abd b9a1 c4bd 905f 7cbe 6963 71be
000000c0: 0a21 aa3e f94d bc3e e353 343e 072c f93e
000000d0: 92b5 35be a7cd e9bc f582 e43c 126f ae3e
000000e0: 76a3 03bf 79c5 cabd d30c 7d3e a7af a3be
000000f0: 07b5 1bbf e444 0bbf 19db 2a3f 0575 b53d
00000100: c4d9 873e a492 9a3c 23e9 82bd 477e 8f3e
00000110: 3754 42bf ac86 ecbd 2bad 363e d795 353e
00000120: f75a 5f3f 2200 35bf 9141 05be 4ad5 e43e
00000130: 6130 82be d7a4 3a3e 604d b23d 47b5 c13d
00000140: 8233 a33e 6e86 883e b427 b63e 5524 263f
00000150: 982b fdbd 9a34 babe b358 99be ac06 89bc
00000160: 8de2 223f 66c7 88be ef4f 663f d784 f23c
00000170: 7f17 a8bd b258 dabe 1a60 313f 4364 1c3f
00000180: b51b 0ebf 561a 0cbd 799a 403f 20e4 ccbe
00000190: 7774 8dbe be6a 86bd ab7d 663f 0d02 25bf
000001a0: 5612 18bf 617b 233f 6b13 383e 7ea0 d5be
000001b0: a357 76be 4cfb 18be 7880 07bf 7f34 13bf
000001c0: 056c 71be da20 5e3f deae 2d3f 99b4 bc3e
000001d0: fd65 f0be b3f4 dd3e f2dd f5be d87e e4be
000001e0: 41b3 1b3e 930f eb3e dc15 4a3e afca 763e
000001f0: 5230 0c3f 9355 863e 6e29 f8be 559d b03e
00000200: 8f86 373f 2d46 3abe 3ba9 12bc 310f 5e3e
00000210: e43c 863e 2795 8b3d 26c0 01bf 31d4 abbe
00000220: b104 bcbe 3407 9dbe a652 3d3f f7c7 263f
00000230: 6065 9dbe d4ff eebe d61d c5be 9315 1b3f
00000240: d160 d53e 084f 223f 1d4b 94be fd45 353f
00000250: 42b8 03bf 6472 1f3d 04cf 3c3f 66d7 973e
00000260: 8f75 8bbe 0c12 2a3e dfd8 0ebf 0f8e 0ebf
00000270: ba10 01bf 18cc b03e 2e8b 16bf 4681 0d3f
00000280: 93f3 a6be 00e9 de3d eda8 d13e 1e5b 1a3f
00000290: 12de 29be 0eb8 08bc 5a83 a2be 1440 acbe
000002a0: 03b1 133e cc39 7f3e e58f 583e 48ef bcbe
000002b0: f3c4 adbd 3b75 bc3c afb4 02bf 67cd 98be
000002c0: 8452 293f 8be2 053f 7380 17bf 3053 f6be
000002d0: 7a7f 053f 6e04 cdbe 74fd 103f cfeb ea3e
000002e0: 7b51 fb3e 4e41 8d3e 737d 273f de16 4a3f
000002f0: d9f2 1a3e 3c15 d4be 187d 86bd 7e8b 99be
00000300: ac09 fdbe 9d7c 043f 0075 cc3e 9490 71bc
00000310: 332e 2dbf 6b98 033e fc3d 1a3f 7a9a a5be
00000320: e4d6 193f f9e2 0d3f 2c6e 473f b565 463f
00000330: e454 373f 4808 d23e 98fb 0e3e 59eb ce3d
00000340: 46b8 fd3e 3c7f 73bd 93fe 483f 76af b5be
00000350: b5bb c53e 73c7 0d3f 0262 5f3e 9160 cf3e
00000360: 5712 96be 6ab5 b5be 0308 ccbe c841 57bc
00000370: e95b 853d ed67 213f 86c1 283c e102 14bf
00000380: 49f0 d4be bb44 c83e 93fb 633d 27d7 ff3e
00000390: 6edf 3bbe 2b09 2e3f d6d6 f83e 8a81 a73e
000003a0: 8803 28bf 9a7a febd 321f 2d3e e5ac 203c
000003b0: 29d9 20bf 901f 64bf 4258 d8be 5bf9 2e3f
000003c0: 0aa7 193f af43 1a3f 768f debe 633b 103e
000003d0: d02a bf3d c8ab 643f 7c78 b9be 831c 8bbc
000003e0: 9708 d7be 4079 053f 38cd 063f 171d 253e
000003f0: 1026 86be a828 483e a118 06bf 7360 b53e
-0.15116276 0.12993352 -0.20159042 0.7431927 -0.32504493 0.17660579 0.16669556 0.5770863
1.0183418 0.42803916 -0.05806623 -0.19777979 0.018628038 0.043330416 0.77206886 -0.019801809
0.82270694 -0.27051228 -0.26768357 0.08298845 0.019337295 0.3605438 -0.100510925 -0.22117403
0.5409905 -0.22214358 0.48428982 0.44191456 -0.3170706 -0.2770841 -0.20165814 0.83282036
-0.45589364 -0.060672134 -0.46933743 -0.17577048 -0.46929586 -0.46932015 -0.9058532 -0.0750526
-0.32264683 0.34673145 0.7638548 0.14377247 -0.03377846 -0.09601159 -0.24645829 -0.23573078
0.33228332 0.36778238 0.17610125 0.48666403 -0.17745045 -0.028540445 0.027894476 0.34069115
-0.51421297 -0.09900946 0.24711923 -0.3196995 -0.608231 -0.54401994 0.66740566 0.0886021
0.2653333 0.018868752 -0.063921236 0.2802603 -0.7590975 -0.11549124 0.17839496 0.1773294
0.87248176 -0.7070333 -0.13013293 0.44693977 -0.25427535 0.18226944 0.08706164 0.09458404
0.31875235 0.26665062 0.35577166 0.6489919 -0.123618305 -0.36368257 -0.29950485 -0.016726814
0.6362694 -0.2671463 0.8996572 0.029604359 -0.082076065 -0.42645794 0.69287264 0.6109049
-0.5551103 -0.034204803 0.75235707 -0.40017796 -0.27627918 -0.06563328 0.90035504 -0.64456254
-0.5940298 0.63860136 0.17976157 -0.41724008 -0.24056868 -0.14939612 -0.529304 -0.5750198
-0.23576362 0.8676888 0.6784495 0.36856535 -0.4695281 0.43350753 -0.48020893 -0.44628024
0.15205099 0.4591032 0.19734901 0.24100755 0.5476123 0.26237163 -0.48469108 0.34495035
0.71689695 -0.18190832 -0.0089514805 0.21685483 0.2621833 0.06815558 -0.5068382 -0.33560327
-0.3672233 -0.30669558 0.73954237 0.6514887 -0.30741405 -0.46679556 -0.38499326 0.60579795
0.41675428 0.6340184 -0.28963557 0.7080992 -0.5145303 0.03892745 0.7375338 0.29656523
-0.27238128 0.16608447 -0.5579967 -0.55685514 -0.5041615 0.3453071 -0.5880612 0.5527538
-0.32607707 0.10884285 0.40949193 0.60295284 -0.1658862 -0.008344663 -0.31740838 -0.33642638
0.14422993 0.24924392 0.21148641 -0.36901307 -0.08484831 0.023005119 -0.5105695 -0.2984421
0.66141534 0.522988 -0.5918037 -0.48110342 0.5214764 -0.40042442 0.5663674 0.45883033
0.49085602 0.27588886 0.65425795 0.7894114 0.15131702 -0.4142245 -0.065668285 -0.29989237
-0.49421442 0.51752645 0.39933014 -0.014743943 -0.6764862 0.12851112 0.6025083 -0.3234442
0.6009352 0.5542446 0.77902484 0.7749894 0.7161391 0.41021943 0.13963163 0.10103483
0.49554652 -0.059447512 0.7851345 -0.3548543 0.38619772 0.5538246 0.21814731 0.40503362
-0.29310867 -0.3548997 -0.39849862 -0.013138242 0.06511671 0.63049203 0.010300046 -0.5781689
-0.41589573 0.39114937 0.05565984 0.49968836 -0.1834695 0.6798274 0.48601407 0.32716018
-0.6563039 -0.12425728 0.16906431 0.009806846 -0.6283136 -0.8911066 -0.42254835 0.68349236
0.60020506 0.60259527 -0.43468827 0.14085154 0.09334338 0.8932462 -0.36224735 -0.016981369
-0.4199874 0.5213814 0.5265689 0.16124378 -0.26200914 0.19546759 -0.5238133 0.35425147

l1.bias f4 [8]
00000000: bf40 f03e 2c59 0a3f b8ef 393f 27da 6e3f
00000010: 66c9 173f 5278 353f 0b58 e53e f955 943f
0.46924397 0.54042315 0.72631407 0.93301624 0.59291685 0.7088672 0.44793734 1.1588737

l2.weight f4 [8, 8]
00000000: 0cd1 e73f e129 b7be 0d69 533f 3af1 8e3e
00000010: cb83 c8be 6bcf 8f3e 971b ce3f 47ef 1e3e
00000020: 99d3 6c3e c5e3 36be a2b1 dfbe c7ca 853f
00000030: 643d a9be 9870 bf3f 3605 a6bf 6c29 a03f
00000040: 8069 81bd d388 44be 75d2 a1be 4e31 53be
00000050: 0008 a339 665a 093e 9064 ca3d e046 abbc
00000060: ece6 90bf 5aa8 92bf d3f1 b23e 2e30 8b3f
00000070: dde9 89bf 5c07 15bf 0949 ff3e 90ee 9c3f
00000080: 17d9 7f3f 1a74 cb3e 6f2b 53bf d09e 0f3f
00000090: afc5 d1bf 1a4e ac3f b684 20bf 152b 873f
000000a0: 78a7 df3d 1d60 f33f 1210 f63e a926 17bf
000000b0: e425 9e3f 4633 253f 3aa4 abbd 4599 923f
000000c0: ebed a53e e825 a6bf 60de 85bf e468 013f
000000d0: cd26 db3f c655 0a3f e8ae 2c3f cc38 633f
000000e0: 28e6 e9be 0854 e13e dc82 cc3f 8c61 cd3f
000000f0: 74af b03f 482c 9fbe 9081 563d 692a 42bf
1.8110671 -0.3577414 0.8258217 0.27918416 -0.3916305 0.28087935 1.610217 0.15520965
0.23127593 -0.17860325 -0.4369021 1.0452508 -0.3305465 1.4956236 -1.297034 1.2512641
-0.06318951 -0.1919282 -0.31605878 -0.20624277 0.00031095743 0.1341339 0.09882462 -0.02090782
-1.1320472 -1.1457627 0.34950122 1.0874078 -1.0774494 -0.58214355 0.4986041 1.2260303
0.9994063 0.39737016 -0.8248815 0.56101704 -1.6388453 1.3461335 -0.627025 1.0560023
0.10920614 1.9013706 0.48059136 -0.59043366 1.2355313 0.6453136 -0.08380933 1.1453024
0.3240808 -1.2980318 -1.0458488 0.50550675 1.7121216 0.5403713 0.67454386 0.8875854
-0.45683408 0.44009423 1.5977435 1.6045394 1.3803544 -0.3108847 0.052369654 -0.7584596

l2.bias f4 [8]
00000000: caa7 613e 3d47 003f 0e55 1bbe 4793 583f
00000010: 868c 583e 5e83 df3e 0ac5 c33d a7bf c93e
0.22036663 0.501087 -0.15169165 0.8459973 0.21147355 0.43654913 0.095590666 0.39404032

l3.weight f4 [12, 8]
00000000: 7555 523f cb53 7dbf 52e8 313e c58d 9abf
00000010: e8b0 3cbf 6a2c 053f 412a 50bf 753c 1dbf
00000020: c731 a33d 8e6b 75bf 2f22 35be 6764 11bf
00000030: e3b8 f5bf f27a 0cbe 030d 9cbf 1b95 493f
00000040: 2816 f23e 4847 79bf 757c 9c3e 2bb4 253f
00000050: be34 b3bf e48a a4bf 9ede 94bf d387 ed3e
00000060: eae8 9a3e d2d2 8b3e 5239 0fbe 34b2 97bf
00000070: 4a53 953e b6d9 2dbf d95d 2d3f cce7 3fbf
00000080: c52c 8d3e 2c17 083f fd53 7dbe 7a6c 36bf
00000090: 08da 423f cfe1 a73d da29 1abf faec d4bf
000000a0: 2d7d 36bf 72c8 d33e 42b2 483e 5473 4d3f
000000b0: ab19 0ebf 9c00 e9be 0ce3 febc 6b5d da3e
000000c0: a01f 1fbf 752b 1d3f f127 983e bce9 a2bf
000000d0: 1993 c93d 21b5 143e 58d6 bebf c9b7 853e
000000e0: 179a 303f 216d 9fbf 40c4 4e3c a727 433f
000000f0: c03b 48bf 5fb4 2bbf 5c55 bf3e 41d6 2fbf
00000100: 7ce9 d4bf 492d 84bf fa4f a8be 9ced 92bf
00000110: 659d b1bf 844f 223f 311c 2cbf b10a 013f
00000120: 19ab d33e b379 79be 0179 943e 4a2e adbf
00000130: 0484 9abf 6cc1 a3be 09d3 013f 66c4 203e
00000140: 964c e1bf f111 f53e 56b0 35be 10e4 7ebf
00000150: d2e6 d5bc 8eb4 3a3f fe3a a83e 3154 81bf
00000160: 6d93 53bf 266c 0f3f ad82 a93e 01c5 f33e
00000170: f380 513f 0e20 1fbf c3bb c33d fdde 4ebf
0.8216165 -0.9895598 0.1737378 -1.2074515 -0.7370744 0.52020895 -0.81314474 -0.61420375
0.07968479 -0.9586724 -0.17688821 -0.56793827 -1.9197048 -0.13718775 -1.2191471 0.7874314
0.4728253 -0.9737439 0.30563703 0.6472804 -1.4000471 -1.2854886 -1.1630437 0.46392688
0.30255824 0.2730928 -0.1398671 -1.1851258 0.29165107 -0.67910326 0.67721325 -0.7496307
0.2757322 0.5316036 -0.2473907 -0.7125927 0.7611394 0.081973664 -0.6022011 -1.663482
-0.71284753 0.41363865 0.1959925 0.802541 -0.55507916 -0.45508277 -0.031114124 0.42649397
-0.6215763 0.61394435 0.29717973 -1.272758 0.0984251 0.1452222 -1.4909163 0.2611678
0.6898512 -1.2455178 0.012620032 0.7623238 -0.7821617 -0.670721 0.37369812 -0.686863
-1.6633754 -1.032632 -0.32873517 -1.1478763 -1.3876158 0.6340258 -0.67230517 0.5040694
0.41341475 -0.24362831 0.2899857 -1.3529751 -1.2071538 -0.31983507 0.5071264 0.1569992
-1.7601497 0.4786525 -0.17743048 -0.99566746 -0.02611104 0.72931755 0.32857507 -1.0103818
-0.8264683 0.56024396 0.3310751 0.4761124 0.81837386 -0.62158287 0.09557297 -0.80809003

l3.bias f4 [12]
00000000: 29d3 c7bc 1c46 dcbd 0f02 8f3c 8699 07bf
00000010: 8fae b8bd e612 f03d 6ef2 b7be c9ec b33e
00000020: 6421 243f a8cb 35bf bab2 083e 8a8f 19bf
-0.024392681 -0.1075556 0.017457036 -0.52968633 -0.090176694 0.117223546 -0.35927147 0.3514159
0.6411345 -0.7101388 0.13349429 -0.5998465
