app/static/data.pth (torch, 6559 bytes, 6 tensors)

l1.weight f4 [8, 77]
00000000: b5d8 84bd 64c8 063e 2eba 34be d05d 84be
00000010: bd8f 2ebd 86e2 843e 97ab ed3e 7a03 a6be
00000020: 2e07 dfbe 0dda b93d f108 a8be 78d9 c1be
00000030: 5966 fb3e 2054 f73e 728f cbbe e43a 99be
00000040: f35e a7be fbd8 c03d d2d9 34be 4488 133f
00000050: 16b5 523f e289 5c3d 7dc7 2f3f e435 fa3e
00000060: a815 d13e c93b 913d 4880 5cbd 66f5 25be
00000070: 2d87 883d 82c3 0b3f b224 a0bd 3b05 dfbe
00000080: 3160 db3e 34f5 91be 4eb8 0fbd 2170 b1be
00000090: e794 84be 2ecb 163f 51bb 0e3f 8cdd 843e
000000a0: 1d5a 2cbe c72d 47be afd5 233e 2399 4a3f
000000b0: 6b33 713c 19a3 883f a725 a2be fa21 073f
000000c0: 095c ccbd 8c51 6fbe 72b2 a3be 060f a4be
000000d0: 9c3b e4be 2061 dc3e be0c 7b3e 3d4b d5be
000000e0: b06a ad3e 7552 2d3f 6540 7abe c21f 413e
000000f0: a108 dabe c85d 793e dbad 093e aaf6 c03d
00000100: 9221 f03c 89ab 66be baba 433e fdbf bfbe
00000110: a097 6e3d a847 143e 495d 643e 2a9c 283f
00000120: 27b2 98bc 6a9f a2be 76f6 e53c a512 603b
00000130: 09d3 063f 9713 4c3f 2ddf 933e caf6 e6be
00000140: 477d cdbe d128 033f dc19 003d 65f0 183e
00000150: 2b89 8bbe d0ba 7d3f eaab 73be 8dbe f0be
00000160: 9484 31bf d7dc c1be 8f95 91be 4538 2abf
00000170: c638 10bf 7fe1 843f 49ff e6be 95a3 343e
00000180: f146 773e f4d7 4c3e 4c7e 0abe 5b05 3c3f
00000190: 6c22 94be 97e1 96be d3ba 10bf d85d a9bd
000001a0: a026 ecbe 064f 0abf 08a8 573f 890c 9c3e
000001b0: 0d62 8b3f 7950 9fbc 9fdf 6a3e d83a 1f3f
000001c0: 125f 8c3e 9777 4b3e 7feb 763e f4b7 5a3e
000001d0: d69e 69be f514 5bbd 437a 163f c179 0d3d
000001e0: 156a 363f f7cc e43e 7e2a 4a3f af88 07bf
000001f0: 66fd 0c3f 3519 913d 14eb f5bd ebe6 ffbe
00000200: 4ea7 8cbe 01b2 81be 0ce7 6dbf b574 87be
00000210: dc5b 8ebe 6fa7 45bf da35 c9be d4d3 203f
00000220: 325f 7fbe 401d 94bd 7b0c b9be 3704 a63e
00000230: df89 ad3f 28b2 103f 8afd 813e 2496 d23d
00000240: e68e 2ebf 33f6 59bf 344f bdbe 9c46 8dbe
00000250: 2081 593f 69e0 153e 855f 4fbe 3b97 4e3d
00000260: d676 bf3e 3e0c 4fbe 4e47 1dbe 740e b43e
00000270: 4ba7 8d3f baae b13d 0315 db3e 2014 243f
00000280: 8f8f ec3e 00b0 50bb 0bc2 4ebe 5077 0e3f
00000290: f840 393f 2c47 5c3f 9a06 03bf 20b4 cdbe
000002a0: 2abf b0be 9f98 4a3f cce0 fd3e e0a2 a43e
000002b0: 3700 143f 3d7d d0bd 162f a13e 2de1 233e
000002c0: 6311 dfbe 6af9 e63e 635a 9d3d 9f6f b33e
000002d0: 3706 2abd aa49 ef3c 5533 bc3e c099 dabe
000002e0: f68e 1a3f 9b6a d2bd 628b f03e 37b1 4e3f
000002f0: aaf7 84be 1f3d 553f 5f82 2f3f 0a1e 67bd
00000300: 6e39 843e 36b0 213f 31a5 5dbe 1b01 58be
00000310: 15c4 813e ad97 e8be be5c a53c ee55 e4bd
00000320: 0624 733f f00c b6be bf77 85be b576 71be
00000330: c736 303f ec69 1e3f 4f59 373f ca33 283f
00000340: 80c0 1abd 5882 c93e 73f3 b93e fd00 ba3e
00000350: c3b3 48be 2e97 053e 7b51 803e 44db fb3a
00000360: bb92 91be 9019 70bf e1d6 9ebe bf65 063e
00000370: 072a 423e 03a1 6abe cbc8 2f3f bf5f d33e
00000380: ceea 91bd 9a2f fcbe a7e5 2dbb f21a 2e3f
00000390: 260d b73e aa45 bd3e 2467 cc3e 5dbe 79be
000003a0: 4a38 d43e e676 053d 331c c53e 295a e63e
000003b0: b2b9 533f 95d6 2f3f f609 2d3e d774 f5be
000003c0: ebd3 e73e f0b5 49be a84f 10bf 6f86 c73e
000003d0: 6f09 9f3e 84eb eb3d 145e e1bd 5dad 823f
000003e0: a238 ac3d 2087 f73e a23b 303f bcae 403f
000003f0: b1d7 33bd 2daf a93e 14b1 c23e 505b 983e
-0.06486646 0.1316238 -0.17649147 -0.25852823 -0.04261755 0.25954074 0.46419975 -0.32424527
-0.43560165 0.09074793 -0.32819322 -0.37861228 0.49101523 0.4830637 -0.39757878 -0.29927742
-0.32689628 0.09416386 -0.17661217 0.576298 0.82307565 0.053842433 0.6866377 0.4886924
0.40836835 0.07091481 -0.053833276 -0.16206893 0.06666408 0.54595196 -0.07819499 -0.43558678
0.42846826 -0.28507388 -0.035087876 -0.3465586 -0.25894853 0.5890378 0.5575457 0.25950277
-0.1683125 -0.19451056 0.15999483 0.7913992 0.014721732 1.0674773 -0.3166935 0.5278622
-0.09978492 -0.23370951 -0.3197208 -0.32042712 -0.44576728 0.4304285 0.2451658 -0.41658965
0.3387046 0.67703944 -0.24438627 0.18859771 -0.42584708 0.24352181 0.13445227 0.094220474
0.029312883 -0.22526373 0.191142 -0.37451163 0.05825007 0.1448046 0.2230121 0.6586329
-0.018639637 -0.31762248 0.028071623 0.00341908 0.52665764 0.7971739 0.28881207 -0.4511016
-0.40134642 0.51234156 0.03127466 0.14935453 -0.27253088 0.9911318 -0.23796049 -0.4702038
-0.69342923 -0.378638 -0.28434417 -0.6649211 -0.5633663 1.0381316 -0.45116642 0.17640527
0.24148156 0.20004255 -0.13524741 0.7344567 -0.28932512 -0.29468986 -0.5653507 -0.082698524
-0.4612322 -0.5402683 0.8424077 0.30478314 1.0889298 -0.019447552 0.22936867 0.62199163
0.27416283 0.19869839 0.24113272 0.21359235 -0.22814497 -0.053486783 0.58780307 0.03453994
0.7125562 0.44687626 0.7897109 -0.5294294 0.55074155 0.07084886 -0.12007728 -0.49980864
-0.27471393 -0.2533112 -0.92930675 -0.26456228 -0.27804458 -0.7720861 -0.39298898 0.62823224
-0.24938658 -0.072321415 -0.36142334 0.3242509 1.35577 0.56521845 0.25388747 0.10282543
-0.68186796 -0.85141295 -0.3697449 -0.27592933 0.84962654 0.14636387 -0.20251282 0.050437193
0.37395352 -0.20219514 -0.15359232 0.35167277 1.1066679 0.086759046 0.42789468 0.6409321
0.46203277 -0.0031843185 -0.20191209 0.55650806 0.7236476 0.860461 -0.5118195 -0.40176487
-0.34520847 0.7913913 0.4958557 0.32155514 0.5781283 -0.10180137 0.31481236 0.16003866
-0.43567953 0.45112163 0.076832555 0.35046098 -0.041509833 0.02920993 0.36757913 -0.42695427
0.6037439 -0.1027424 0.4698134 0.8073916 -0.25970203 0.8329639 0.68558306 -0.05642513
0.25825065 0.631595 -0.21645047 -0.21094172 0.2534491 -0.4542822 0.020185824 -0.11149202
0.9497684 -0.35556746 -0.26067922 -0.2358044 0.68833584 0.61880374 0.7162065 0.65704024
-0.03778124 0.39357257 0.3631855 0.3632888 -0.19599824 0.13045952 0.25062165 0.0019215127
-0.2843226 -0.93789005 -0.31023315 0.1312475 0.18961345 -0.22912984 0.6866576 0.41283986
-0.071248636 -0.49255067 -0.0026534589 0.68009865 0.3575222 0.36967212 0.3992244 -0.24389024
0.41449195 0.032584094 0.38498077 0.44990662 0.82705224 0.686868 0.16898331 -0.47940704
0.45278868 -0.1969831 -0.56371546 0.38969752 0.31061885 0.115195304 -0.11004272 1.0209156
0.08409239 0.4834528 0.6884099 0.75266623 -0.04390687 0.3314146 0.38025725 0.29757166

l1.bias f4 [8]
00000000: 6efe de3e 4e39 9e3f 0387 6a3f 06be 433f
00000010: 1d82 013f 5d4f d13e 5f6a 323f 9b74 2c3f
0.4355349 1.2361238 0.9161226 0.7646183 0.5058916 0.40880862 0.6969356 0.67365426

l2.weight f4 [8, 8]
00000000: dace ac3f 82e6 c43f bc16 3f3e 53a7 473f
00000010: cdaf 80bf 9519 e9bd 4ebc 84be 402e 2e3e
00000020: 82ad 163f 442e 85bf 102a 6c3f 7c20 173f
00000030: 5900 143f 8826 5d3f 5467 6cbf 6f1f e0be
00000040: 0f88 4cbf fbc5 40bf f3a2 a43f bffa 823f
00000050: bce1 c53e 9fc0 7dbf 6cd9 773f 09d4 c33f
00000060: d4ba aebd aeab aebe 6ddb 22be a630 82be
00000070: 2065 35bc a673 183e b079 ac3d 089b 40bd
00000080: c33e aa3f 702e 31bd d7f8 493d 1f95 493f
00000090: 1785 413f fc7e d63f f7c0 b9be 2a99 9fbe
000000a0: f0a9 523f c526 b03e 5786 1dbe 5c2c 773e
000000b0: 297a 57bf 352e d63e a440 ec3f 8a23 803d
000000c0: a722 15bf ee3d 20bf fc09 a23e a084 433f
000000d0: 7897 453f 75f9 2dbf 3c7c 0cbe b293 953f
000000e0: 12c2 4dbf 2fe5 d33f b8e6 843e 252e 77be
000000f0: 9b00 873f cba5 2d3f f742 c9be ddd9 9dbe
1.3500626 1.5382845 0.18661016 0.7798969 -1.005365 -0.113818325 -0.25924915 0.1700983
0.588585 -1.0404744 0.9225168 0.5903394 0.5781303 0.8638692 -0.92345166 -0.43773982
-0.7989511 -0.75302094 1.2862228 1.0232772 0.38648784 -0.9912204 0.96816134 1.5299083
-0.085317284 -0.34115356 -0.15904017 -0.2542774 -0.011071473 0.14887866 0.084216475 -0.04702285
1.3300403 -0.043257177 0.049309578 0.78743166 0.75593704 1.6757503 -0.36280033 -0.31171542
0.82290554 0.3440458 -0.15383278 0.24138016 -0.84170777 0.41832128 1.8457227 0.062567785
-0.58256 -0.625945 0.31648242 0.76374245 0.7718425 -0.67958766 -0.13719267 1.1685698
-0.8037425 1.6554316 0.25957274 -0.24138696 1.054706 0.67831105 -0.39308903 -0.3083028

l2.bias f4 [8]
00000000: 34f2 2d3f c2bf 40be 5d85 273f 5789 b4be
00000010: dcc1 d83d 6b32 003f 1b7e 7cbe 9edf 863f
0.679477 -0.1882315 0.6543787 -0.35261032 0.10583851 0.5007693 -0.2465748 1.0536993

l3.weight f4 [12, 8]
00000000: 7f84 b6be 5eb4 a6be 22e5 c73c 4119 8a3e
00000010: 9c9f 193e a2d4 abbf 35ed 653e ffa2 9a3e
00000020: a5ed ab3d f81f 843e d4fd a4be febe 0d3e
00000030: 7be0 23bd 7351 2f3f 2ceb f3bf 12b1 afbf
00000040: 629a 1c3f e76f a4bf 3e2a dfbf b473 bcbd
00000050: c507 b63e aebd 303e e782 46bf b28f 14bf
00000060: b05c edbf 81df b6bf 6636 233f 6830 7ebe
00000070: 1d17 8bbd 579c bc3e 0363 9f3e c525 90bf
00000080: 91f9 083e c428 eabf 5d87 88bf 45fd 893e
00000090: 4bf1 983d b210 7bbf 6fae a3bf 5e5a 963f
000000a0: 5431 c03e fe74 bfbf 0d51 4c3f 00c1 be3d
000000b0: 9ac3 6ebf 8e4b fcbd 302d 52bf fd1f bdbe
000000c0: 3abd 353e e3a5 953e ba58 96bf 040a a9be
000000d0: 611b ce3e 53a2 22bf 26c3 9dbf 5b5a fcbc
000000e0: 280c 02c0 21a6 ddbe 4f41 223f c68f 39be
000000f0: 04b4 77be 5bd3 d9bf 5a47 d83e 599e a13e
00000100: 610a 90be c702 103f 0d1a 7b3e f06b 2c3d
00000110: beae 22be a176 14bf 902b 363e 3473 b9bf
00000120: 7dc2 ecbf be18 07bf dc6e 0cbf 260b 663e
00000130: bb0b 003f ca9d d93e 51fa 96bf be92 003f
00000140: 14c3 f73e 31ef e5be ff82 a1bf a078 863c
00000150: 8096 c1bf 81db 3b3f 9c6d 9dbf ce1f 003f
00000160: e1e9 b9bf 13c4 353f c5d1 aebe 402d 5ebc
00000170: 5336 023f 11c6 9ebf 2171 d3be 0a3a 3e3d
-0.35647961 -0.32559484 0.024401251 0.26972392 0.15002292 -1.3424265 0.22453769 0.3020248
0.083949365 0.2580564 -0.32224905 0.13842389 -0.040009003 0.68483657 -1.9056144 -1.3725913
0.6117307 -1.284665 -1.7434766 -0.09201756 0.35552803 0.17259857 -0.7754349 -0.5803176
-1.8543911 -1.4286958 0.6375488 -0.24823153 -0.06791518 0.36838028 0.31130227 -1.1261526
0.13376452 -1.8293691 -1.066631 0.26951042 0.07467898 -0.9807235 -1.2787608 1.1746328
0.37537634 -1.4957578 0.79811174 0.093141556 -0.93267214 -0.123190984 -0.821002 -0.36938468
0.17747965 0.29228124 -1.1745827 -0.33015454 0.40255263 -0.6352894 -1.232518 -0.030804804
-2.031992 -0.4329081 0.63380903 -0.18121251 -0.24189764 -1.7017626 0.42241937 0.31566122
-0.28132918 0.5625424 0.24521656 0.042095125 -0.15886971 -0.57993513 0.17790055 -1.4488282
-1.8496853 -0.5277213 -0.5485666 0.2246519 0.500179 0.42503196 -1.179514 0.5022391
0.4839102 -0.4490905 -1.2618102 0.01641494 -1.5124054 0.7338181 -1.2299075 0.5004853
-1.4524499 0.7100231 -0.34144416 -0.013560593 0.5086414 -1.2404195 -0.41297248 0.04644207

l3.bias f4 [12]
00000000: f07a bdbe a3b7 793d 5008 5b3e 7a70 5cbe
00000010: c9b3 053f 09a5 003f 3700 6f3d bb3e 133f
00000020: 9a21 4cbd 694b 933e 9284 e83e 82a4 5cbe
-0.37007856 0.060966145 0.2138989 -0.21527281 0.52227455 0.50251824 0.058349814 0.57517594
-0.049836732 0.2876847 0.45413643 -0.2154713
